RepNetwork_V011_BestStruct(
  (pixelUnShuffle): PixelUnshuffle(downscale_factor=3)
  (head): RepBlockV5(
    (act): GELU(approximate=none)
    (conv0): Conv2d(27, 256, kernel_size=(3, 3), stride=(1, 1), padding=(1, 1))
    (conv1): Conv2d(256, 32, kernel_size=(1, 1), stride=(1, 1))
    (conv0_b2): Conv2d(27, 128, kernel_size=(3, 3), stride=(1, 1), padding=(1, 1))
    (conv1_b2): Conv2d(128, 32, kernel_size=(1, 1), stride=(1, 1))
    (conv1_res): Conv2d(27, 32, kernel_size=(1, 1), stride=(1, 1))
  )
  (backbone): Sequential(
    (0): RepBlockV5(
      (act): GELU(approximate=none)
      (conv0): Conv2d(32, 256, kernel_size=(3, 3), stride=(1, 1), padding=(1, 1))
      (conv1): Conv2d(256, 32, kernel_size=(1, 1), stride=(1, 1))
      (conv0_b2): Conv2d(32, 128, kernel_size=(3, 3), stride=(1, 1), padding=(1, 1))
      (conv1_b2): Conv2d(128, 32, kernel_size=(1, 1), stride=(1, 1))
    )
  )
  (transition): Sequential(
    (0): RepBlockV5(
      (conv0): Conv2d(32, 256, kernel_size=(3, 3), stride=(1, 1), padding=(1, 1))
      (conv1): Conv2d(256, 27, kernel_size=(1, 1), stride=(1, 1))
      (conv0_b2): Conv2d(32, 128, kernel_size=(3, 3), stride=(1, 1), padding=(1, 1))
      (conv1_b2): Conv2d(128, 27, kernel_size=(1, 1), stride=(1, 1))
      (conv1_res): Conv2d(32, 27, kernel_size=(1, 1), stride=(1, 1))
    )
  )
  (upsampler): PixelShuffle(upscale_factor=3)
  (input_conv2): RepBlockV5(
    (conv0): Conv2d(3, 256, kernel_size=(3, 3), stride=(1, 1), padding=(1, 1))
    (conv1): Conv2d(256, 48, kernel_size=(1, 1), stride=(1, 1))
    (conv0_b2): Conv2d(3, 128, kernel_size=(3, 3), stride=(1, 1), padding=(1, 1))
    (conv1_b2): Conv2d(128, 48, kernel_size=(1, 1), stride=(1, 1))
    (conv1_res): Conv2d(3, 48, kernel_size=(1, 1), stride=(1, 1))
  )
  (upsampler1): PixelShuffle(upscale_factor=4)
)
[DIV2K-X4], PSNR/SSIM: 17.32/0.1611 (Best: 17.32/0.1611, Epoch: 1/1)

[DIV2K-X4], PSNR/SSIM: 26.41/0.7242 (Best: 26.41/0.7242, Epoch: 2/2)

[DIV2K-X4], PSNR/SSIM: 26.41/0.7195 (Best: 26.41/0.7242, Epoch: 2/2)

[DIV2K-X4], PSNR/SSIM: 26.50/0.7282 (Best: 26.50/0.7282, Epoch: 4/4)

[DIV2K-X4], PSNR/SSIM: 26.53/0.7307 (Best: 26.53/0.7307, Epoch: 5/5)
…
