RepNetwork_V011_BestStruct(
  (pixelUnShuffle): PixelUnshuffle(downscale_factor=3)
  (head): RepBlockV5(
    (act): GELU(approximate='none')
    (conv0): Conv2d(27, 256, kernel_size=(3, 3), stride=(1, 1), padding=(1, 1))
    (conv1): Conv2d(256, 32, kernel_size=(1, 1), stride=(1, 1))
    (conv0_b2): Conv2d(27, 128, kernel_size=(3, 3), stride=(1, 1), padding=(1, 1))
    (conv1_b2): Conv2d(128, 32, kernel_size=(1, 1), stride=(1, 1))
    (conv1_res): Conv2d(27, 32, kernel_size=(1, 1), stride=(1, 1))
  )
  (backbone): Sequential(
    (0): RepBlockV5(
      (act): GELU(approximate='none')
      (conv0): Conv2d(32, 256, kernel_size=(3, 3), stride=(1, 1), padding=(1, 1))
      (conv1): Conv2d(256, 32, kernel_size=(1, 1), stride=(1, 1))
      (conv0_b2): Conv2d(32, 128, kernel_size=(3, 3), stride=(1, 1), padding=(1, 1))
      (conv1_b2): Conv2d(128, 32, kernel_size=(1, 1), stride=(1, 1))
    )
  )
  (transition): Sequential(
    (0): RepBlockV5(
      (conv0): Conv2d(32, 256, kernel_size=(3, 3), stride=(1, 1), padding=(1, 1))
      (conv1): Conv2d(256, 27, kernel_size=(1, 1), stride=(1, 1))
      (conv0_b2): Conv2d(32, 128, kernel_size=(3, 3), stride=(1, 1), padding=(1, 1))
      (conv1_b2): Conv2d(128, 27, kernel_size=(1, 1), stride=(1, 1))
      (conv1_res): Conv2d(32, 27, kernel_size=(1, 1), stride=(1, 1))
    )
  )
  (upsampler): PixelShuffle(upscale_factor=3)
  (input_conv2): RepBlockV5(
    (conv0): Conv2d(3, 256, kernel_size=(3, 3), stride=(1, 1), padding=(1, 1))
    (conv1): Conv2d(256, 48, kernel_size=(1, 1), stride=(1, 1))
    (conv0_b2): Conv2d(3, 128, kernel_size=(3, 3), stride=(1, 1), padding=(1, 1))
    (conv1_b2): Conv2d(128, 48, kernel_size=(1, 1), stride=(1, 1))
    (conv1_res): Conv2d(3, 48, kernel_size=(1, 1), stride=(1, 1))
  )
  (upsampler1): PixelShuffle(upscale_factor=4)
)
[DIV2K-X4], PSNR/SSIM: 9.39/0.0171 (Best: 9.39/0.0171, Epoch: 1/1)

[DIV2K-X4], PSNR/SSIM: 26.24/0.7199 (Best: 26.24/0.7199, Epoch: 2/2)

[DIV2K-X4], PSNR/SSIM: 26.28/0.7195 (Best: 26.28/0.7199, Epoch: 3/2)

[DIV2K-X4], PSNR/SSIM: 26.36/0.7224 (Best: 26.36/0.7224, Epoch: 4/4)

[DIV2K-X4], PSNR/SSIM: 26.35/0.7152 (Best: 26.36/0.7224, Epoch: 4/4)
…
[DIV2K-X4], PSNR/SSIM: 26.68/0.7380 (Best: 26.68/0.7381, Epoch: 575/711)

[DIV2K-X4], PSNR/SSIM: 26.67/0.7378 (Best: 26.68/0.7381, Epoch: 575/711)

[DIV2K-X4], PSNR/SSIM: 26.68/0.7379 (Best: 26.68/0.7381, Epoch: 575/711)

[DIV2K-X4], PSNR/SSIM: 26.67/0.7378 (Best: 26.68/0.7381, Epoch: 575/711)

[DIV2K-X4], PSNR/SSIM: 26.68/0.7379 (Best: 26.68/0.7381, Epoch: 575/711)

[DIV2K-X4], PSNR/SSIM: 26.68/0.7378 (Best: 26.68/0.7381, Epoch: 575/711)

[DIV2K-X4], PSNR/SSIM: 26.68/0.7379 (Best: 26.68/0.7381, Epoch: 575/711)

RepNetwork_V011_BestStruct(
  (pixelUnShuffle): PixelUnshuffle(downscale_factor=3)
  (head): RepBlockV5(
    (act): GELU(approximate='none')
    (conv0): Conv2d(27, 256, kernel_size=(3, 3), stride=(1, 1), padding=(1, 1))
    (conv1): Conv2d(256, 32, kernel_size=(1, 1), stride=(1, 1))
    (conv0_b2): Conv2d(27, 128, kernel_size=(3, 3), stride=(1, 1), padding=(1, 1))
    (conv1_b2): Conv2d(128, 32, kernel_size=(1, 1), stride=(1, 1))
    (conv1_res): Conv2d(27, 32, kernel_size=(1, 1), stride=(1, 1))
  )
  (backbone): Sequential(
    (0): RepBlockV5(
      (act): GELU(approximate='none')
      (conv0): Conv2d(32, 256, kernel_size=(3, 3), stride=(1, 1), padding=(1, 1))
      (conv1): Conv2d(256, 32, kernel_size=(1, 1), stride=(1, 1))
      (conv0_b2): Conv2d(32, 128, kernel_size=(3, 3), stride=(1, 1), padding=(1, 1))
      (conv1_b2): Conv2d(128, 32, kernel_size=(1, 1), stride=(1, 1))
    )
  )
  (transition): Sequential(
    (0): RepBlockV5(
      (conv0): Conv2d(32, 256, kernel_size=(3, 3), stride=(1, 1), padding=(1, 1))
      (conv1): Conv2d(256, 27, kernel_size=(1, 1), stride=(1, 1))
      (conv0_b2): Conv2d(32, 128, kernel_size=(3, 3), stride=(1, 1), padding=(1, 1))
      (conv1_b2): Conv2d(128, 27, kernel_size=(1, 1), stride=(1, 1))
      (conv1_res): Conv2d(32, 27, kernel_size=(1, 1), stride=(1, 1))
    )
  )
  (upsampler): PixelShuffle(upscale_factor=3)
  (input_conv2): RepBlockV5(
    (conv0): Conv2d(3, 256, kernel_size=(3, 3), stride=(1, 1), padding=(1, 1))
    (conv1): Conv2d(256, 48, kernel_size=(1, 1), stride=(1, 1))
    (conv0_b2): Conv2d(3, 128, kernel_size=(3, 3), stride=(1, 1), padding=(1, 1))
    (conv1_b2): Conv2d(128, 48, kernel_size=(1, 1), stride=(1, 1))
    (conv1_res): Conv2d(3, 48, kernel_size=(1, 1), stride=(1, 1))
  )
  (upsampler1): PixelShuffle(upscale_factor=4)
)
RepNetwork_V011_BestStruct(
  (pixelUnShuffle): PixelUnshuffle(downscale_factor=3)
  (head): RepBlockV5(
    (act): GELU(approximate='none')
    (conv0): Conv2d(27, 256, kernel_size=(3, 3), stride=(1, 1), padding=(1, 1))
    (conv1): Conv2d(256, 32, kernel_size=(1, 1), stride=(1, 1))
    (conv0_b2): Conv2d(27, 128, kernel_size=(3, 3), stride=(1, 1), padding=(1, 1))
    (conv1_b2): Conv2d(128, 32, kernel_size=(1, 1), stride=(1, 1))
    (conv1_res): Conv2d(27, 32, kernel_size=(1, 1), stride=(1, 1))
  )
  (backbone): Sequential(
    (0): RepBlockV5(
      (act): GELU(approximate='none')
      (conv0): Conv2d(32, 256, kernel_size=(3, 3), stride=(1, 1), padding=(1, 1))
      (conv1): Conv2d(256, 32, kernel_size=(1, 1), stride=(1, 1))
      (conv0_b2): Conv2d(32, 128, kernel_size=(3, 3), stride=(1, 1), padding=(1, 1))
      (conv1_b2): Conv2d(128, 32, kernel_size=(1, 1), stride=(1, 1))
    )
  )
  (transition): Sequential(
    (0): RepBlockV5(
      (conv0): Conv2d(32, 256, kernel_size=(3, 3), stride=(1, 1), padding=(1, 1))
      (conv1): Conv2d(256, 27, kernel_size=(1, 1), stride=(1, 1))
      (conv0_b2): Conv2d(32, 128, kernel_size=(3, 3), stride=(1, 1), padding=(1, 1))
      (conv1_b2): Conv2d(128, 27, kernel_size=(1, 1), stride=(1, 1))
      (conv1_res): Conv2d(32, 27, kernel_size=(1, 1), stride=(1, 1))
    )
  )
  (upsampler): PixelShuffle(upscale_factor=3)
  (input_conv2): RepBlockV5(
    (conv0): Conv2d(3, 256, kernel_size=(3, 3), stride=(1, 1), padding=(1, 1))
    (conv1): Conv2d(256, 48, kernel_size=(1, 1), stride=(1, 1))
    (conv0_b2): Conv2d(3, 128, kernel_size=(3, 3), stride=(1, 1), padding=(1, 1))
    (conv1_b2): Conv2d(128, 48, kernel_size=(1, 1), stride=(1, 1))
    (conv1_res): Conv2d(3, 48, kernel_size=(1, 1), stride=(1, 1))
  )
  (upsampler1): PixelShuffle(upscale_factor=4)
)
[DIV2K-X4], PSNR/SSIM: 26.68/0.7378 (Best: 26.68/0.7381, Epoch: 575/711)

[DIV2K-X4], PSNR/SSIM: 26.68/0.7379 (Best: 26.68/0.7381, Epoch: 575/711)

[DIV2K-X4], PSNR/SSIM: 26.67/0.7378 (Best: 26.68/0.7381, Epoch: 575/711)

[DIV2K-X4], PSNR/SSIM: 26.68/0.7379 (Best: 26.68/0.7381, Epoch: 575/711)

[DIV2K-X4], PSNR/SSIM: 26.68/0.7381 (Best: 26.68/0.7381, Epoch: 575/711)
…
